…
(tt=2) final loss (avg sq l2): 4.7626
(tt=3) final loss (avg sq l2): 4.6612
(tt=4) final loss (avg sq l2): 5.3038
(tt=5) final loss (avg sq l2): 4.3570
(tt=6) final loss (avg sq l2): 5.8054
(tt=7) final loss (avg sq l2): 4.0264
(tt=8) final loss (avg sq l2): 9.1528
(tt=9) final loss (avg sq l2): 5.3358
mean over folds: 5.0785


NOW DOING: DNN

num_hidden: 1, num_units: 30, nonlin: sigmoid
_________________________________________________________________
Layer (type)                 Output Shape              Param #   
=================================================================
dense_1 (Dense)              (None, 30)                210       
_________________________________________________________________
dense_2 (Dense)              (None, 3)                 93        
=================================================================
Total params: 303
Trainable params: 303
Non-trainable params: 0
_________________________________________________________________
(tt=0) final loss (avg sq l2): 82.0614
_________________________________________________________________
Layer (type)                 Output Shape              Param #   
=================================================================
dense_3 (Dense)              (None, 30)                210       
_________________________________________________________________
dense_4 (Dense)              (None, 3)                 93        
=================================================================
Total params: 303
Trainable params: 303
Non-trainable params: 0
_________________________________________________________________
(tt=1) final loss (avg sq l2): 75.3134
_________________________________________________________________
Layer (type)                 Output Shape              Param #   
=================================================================
dense_5 (Dense)              (None, 30)                210       
_________________________________________________________________
dense_6 (Dense)              (None, 3)                 93        
=================================================================
Total params: 303
Trainable params: 303
Non-trainable params: 0
_________________________________________________________________
(tt=2) final loss (avg sq l2): 134.3955
_________________________________________________________________
Layer (type)                 Output Shape              Param #   
=================================================================
dense_7 (Dense)              (None, 30)                210       
_________________________________________________________________
dense_8 (Dense)              (None, 3)                 93        
=================================================================
Total params: 303
Trainable params: 303
Non-trainable params: 0
_________________________________________________________________
(tt=3) final loss (avg sq l2): 63.5117
_________________________________________________________________
Layer (type)                 Output Shape              Param #   
=================================================================
dense_9 (Dense)              (None, 30)                210       
_________________________________________________________________
dense_10 (Dense)             (None, 3)                 93        
=================================================================
Total params: 303
Trainable params: 303
Non-trainable params: 0
_________________________________________________________________
(tt=4) final loss (avg sq l2): 127.5896
_________________________________________________________________
Layer (type)                 Output Shape              Param #   
=================================================================
dense_11 (Dense)             (None, 30)                210       
_________________________________________________________________
dense_12 (Dense)             (None, 3)                 93        
=================================================================
Total params: 303
Trainable params: 303
Non-trainable params: 0
_________________________________________________________________
(tt=5) final loss (avg sq l2): 122.1989
_________________________________________________________________
Layer (type)                 Output Shape              Param #   
=================================================================
dense_13 (Dense)             (None, 30)                210       
_________________________________________________________________
dense_14 (Dense)             (None, 3)                 93        
=================================================================
Total params: 303
Trainable params: 303
Non-trainable params: 0
_________________________________________________________________
(tt=6) final loss (avg sq l2): 77.4893
_________________________________________________________________
Layer (type)                 Output Shape              Param #   
=================================================================
dense_15 (Dense)             (None, 30)                210       
_________________________________________________________________
dense_16 (Dense)             (None, 3)                 93        
=================================================================
Total params: 303
Trainable params: 303
Non-trainable params: 0
_________________________________________________________________
(tt=7) final loss (avg sq l2): 140.2008
_________________________________________________________________
Layer (type)                 Output Shape              Param #   
=================================================================
dense_17 (Dense)             (None, 30)                210       
_________________________________________________________________
dense_18 (Dense)             (None, 3)                 93        
=================================================================
Total params: 303
Trainable params: 303
Non-trainable params: 0
_________________________________________________________________
(tt=8) final loss (avg sq l2): 94.2759
_________________________________________________________________
Layer (type)                 Output Shape              Param #   
=================================================================
dense_19 (Dense)             (None, 30)                210       
_________________________________________________________________
dense_20 (Dense)             (None, 3)                 93        
=================================================================
Total params: 303
Trainable params: 303
Non-trainable params: 0
_________________________________________________________________
(tt=9) final loss (avg sq l2): 70.4172
mean over folds: 98.7454


NOW DOING: DNN

num_hidden: 1, num_units: 30, nonlin: tanh
_________________________________________________________________
Layer (type)                 Output Shape              Param #   
=================================================================
dense_21 (Dense)             (None, 30)                210       
_________________________________________________________________
dense_22 (Dense)             (None, 3)                 93        
=================================================================
Total params: 303
Trainable params: 303
Non-trainable params: 0
_________________________________________________________________
(tt=0) final loss (avg sq l2): 44.0455
_________________________________________________________________
Layer (type)                 Output Shape              Param #   
=================================================================
dense_23 (Dense)             (None, 30)                210       
_________________________________________________________________
dense_24 (Dense)             (None, 3)                 93        
=================================================================
Total params: 303
Trainable params: 303
Non-trainable params: 0
_________________________________________________________________
(tt=1) final loss (avg sq l2): 27.1809
_________________________________________________________________
Layer (type)                 Output Shape              Param #   
=================================================================
dense_25 (Dense)             (None, 30)                210       
_________________________________________________________________
dense_26 (Dense)             (None, 3)                 93        
=================================================================
Total params: 303
Trainable params: 303
Non-trainable params: 0
_________________________________________________________________
(tt=2) final loss (avg sq l2): 43.4677
_________________________________________________________________
Layer (type)                 Output Shape              Param #   
=================================================================
dense_27 (Dense)             (None, 30)                210       
_________________________________________________________________
dense_28 (Dense)             (None, 3)                 93        
=================================================================
Total params: 303
Trainable params: 303
Non-trainable params: 0
_________________________________________________________________
(tt=3) final loss (avg sq l2): 85.9237
_________________________________________________________________
Layer (type)                 Output Shape              Param #   
=================================================================
dense_29 (Dense)             (None, 30)                210       
_________________________________________________________________
dense_30 (Dense)             (None, 3)                 93        
=================================================================
Total params: 303
Trainable params: 303
Non-trainable params: 0
_________________________________________________________________
(tt=4) final loss (avg sq l2): 51.3907
_________________________________________________________________
Layer (type)                 Output Shape              Param #   
=================================================================
dense_31 (Dense)             (None, 30)                210       
_________________________________________________________________
dense_32 (Dense)             (None, 3)                 93        
=================================================================
Total params: 303
Trainable params: 303
Non-trainable params: 0
_________________________________________________________________
(tt=5) final loss (avg sq l2): 141.8971
_________________________________________________________________
Layer (type)                 Output Shape              Param #   
=================================================================
dense_33 (Dense)             (None, 30)                210       
_________________________________________________________________
dense_34 (Dense)             (None, 3)                 93        
=================================================================
Total params: 303
Trainable params: 303
Non-trainable params: 0
_________________________________________________________________
(tt=6) final loss (avg sq l2): 21.7055
_________________________________________________________________
Layer (type)                 Output Shape              Param #   
=================================================================
dense_35 (Dense)             (None, 30)                210       
_________________________________________________________________
dense_36 (Dense)             (None, 3)                 93        
=================================================================
Total params: 303
Trainable params: 303
Non-trainable params: 0
_________________________________________________________________
(tt=7) final loss (avg sq l2): 96.4876
_________________________________________________________________
Layer (type)                 Output Shape              Param #   
=================================================================
dense_37 (Dense)             (None, 30)                210       
_________________________________________________________________
dense_38 (Dense)             (None, 3)                 93        
=================================================================
Total params: 303
Trainable params: 303
Non-trainable params: 0
_________________________________________________________________
(tt=8) final loss (avg sq l2): 105.0558
_________________________________________________________________
Layer (type)                 Output Shape              Param #   
=================================================================
dense_39 (Dense)             (None, 30)                210       
_________________________________________________________________
dense_40 (Dense)             (None, 3)                 93        
=================================================================
Total params: 303
Trainable params: 303
Non-trainable params: 0
_________________________________________________________________
(tt=9) final loss (avg sq l2): 36.7233
mean over folds: 65.3878


NOW DOING: DNN

num_hidden: 1, num_units: 30, nonlin: relu
_________________________________________________________________
Layer (type)                 Output Shape              Param #   
=================================================================
dense_41 (Dense)             (None, 30)                210       
_________________________________________________________________
dense_42 (Dense)             (None, 3)                 93        
=================================================================
Total params: 303
Trainable params: 303
Non-trainable params: 0
_________________________________________________________________
(tt=0) final loss (avg sq l2): 4.3942
_________________________________________________________________
Layer (type)                 Output Shape              Param #   
=================================================================
dense_43 (Dense)             (None, 30)                210       
_________________________________________________________________
dense_44 (Dense)             (None, 3)                 93        
=================================================================
Total params: 303
Trainable params: 303
Non-trainable params: 0
_________________________________________________________________
(tt=1) final loss (avg sq l2): 3.7007
_________________________________________________________________
Layer (type)                 Output Shape              Param #   
=================================================================
dense_45 (Dense)             (None, 30)                210       
_________________________________________________________________
dense_46 (Dense)             (None, 3)                 93        
=================================================================
Total params: 303
Trainable params: 303
Non-trainable params: 0
_________________________________________________________________
(tt=2) final loss (avg sq l2): 5.0809
_________________________________________________________________
Layer (type)                 Output Shape              Param #   
=================================================================
dense_47 (Dense)             (None, 30)                210       
_________________________________________________________________
dense_48 (Dense)             (None, 3)                 93        
=================================================================
Total params: 303
Trainable params: 303
Non-trainable params: 0
_________________________________________________________________
(tt=3) final loss (avg sq l2): 2.7086
_________________________________________________________________
Layer (type)                 Output Shape              Param #   
=================================================================
dense_49 (Dense)             (None, 30)                210       
_________________________________________________________________
dense_50 (Dense)             (None, 3)                 93        
=================================================================
Total params: 303
Trainable params: 303
Non-trainable params: 0
_________________________________________________________________
(tt=4) final loss (avg sq l2): 4.8551
_________________________________________________________________
Layer (type)                 Output Shape              Param #   
=================================================================
dense_51 (Dense)             (None, 30)                210       
_________________________________________________________________
dense_52 (Dense)             (None, 3)                 93        
=================================================================
Total params: 303
Trainable params: 303
Non-trainable params: 0
_________________________________________________________________
(tt=5) final loss (avg sq l2): 3.9209
_________________________________________________________________
Layer (type)                 Output Shape              Param #   
=================================================================
dense_53 (Dense)             (None, 30)                210       
_________________________________________________________________
dense_54 (Dense)             (None, 3)                 93        
=================================================================
Total params: 303
Trainable params: 303
Non-trainable params: 0
_________________________________________________________________
(tt=6) final loss (avg sq l2): 3.0977
_________________________________________________________________
Layer (type)                 Output Shape              Param #   
=================================================================
dense_55 (Dense)             (None, 30)                210       
_________________________________________________________________
dense_56 (Dense)             (None, 3)                 93        
=================================================================
Total params: 303
Trainable params: 303
Non-trainable params: 0
_________________________________________________________________
(tt=7) final loss (avg sq l2): 3.4243
_________________________________________________________________
Layer (type)                 Output Shape              Param #   
=================================================================
dense_57 (Dense)             (None, 30)                210       
_________________________________________________________________
dense_58 (Dense)             (None, 3)                 93        
=================================================================
Total params: 303
Trainable params: 303
Non-trainable params: 0
_________________________________________________________________
(tt=8) final loss (avg sq l2): 3.4273
_________________________________________________________________
Layer (type)                 Output Shape              Param #   
=================================================================
dense_59 (Dense)             (None, 30)                210       
_________________________________________________________________
dense_60 (Dense)             (None, 3)                 93        
=================================================================
Total params: 303
Trainable params: 303
Non-trainable params: 0
_________________________________________________________________
(tt=9) final loss (avg sq l2): 2.9338
mean over folds: 3.7543


NOW DOING: DNN

num_hidden: 2, num_units: 30, nonlin: sigmoid
_________________________________________________________________
Layer (type)                 Output Shape              Param #   
=================================================================
dense_61 (Dense)             (None, 30)                210       
_________________________________________________________________
dense_62 (Dense)             (None, 30)                930       
_________________________________________________________________
dense_63 (Dense)             (None, 3)                 93        
=================================================================
Total params: 1,233
Trainable params: 1,233
Non-trainable params: 0
_________________________________________________________________
(tt=0) final loss (avg sq l2): 152.7540
_________________________________________________________________
Layer (type)                 Output Shape              Param #   
=================================================================
dense_64 (Dense)             (None, 30)                210       
_________________________________________________________________
dense_65 (Dense)             (None, 30)                930       
_________________________________________________________________
dense_66 (Dense)             (None, 3)                 93        
=================================================================
Total params: 1,233
Trainable params: 1,233
Non-trainable params: 0
_________________________________________________________________
(tt=1) final loss (avg sq l2): 99.6701
_________________________________________________________________
Layer (type)                 Output Shape              Param #   
=================================================================
dense_67 (Dense)             (None, 30)                210       
_________________________________________________________________
dense_68 (Dense)             (None, 30)                930       
_________________________________________________________________
dense_69 (Dense)             (None, 3)                 93        
=================================================================
Total params: 1,233
Trainable params: 1,233
Non-trainable params: 0
_________________________________________________________________
(tt=2) final loss (avg sq l2): 631.2511
_________________________________________________________________
Layer (type)                 Output Shape              Param #   
=================================================================
dense_70 (Dense)             (None, 30)                210       
_________________________________________________________________
dense_71 (Dense)             (None, 30)                930       
_________________________________________________________________
dense_72 (Dense)             (None, 3)                 93        
=================================================================
Total params: 1,233
Trainable params: 1,233
Non-trainable params: 0
_________________________________________________________________
(tt=3) final loss (avg sq l2): 273.5876
_________________________________________________________________
Layer (type)                 Output Shape              Param #   
=================================================================
dense_73 (Dense)             (None, 30)                210       
_________________________________________________________________
dense_74 (Dense)             (None, 30)                930       
_________________________________________________________________
dense_75 (Dense)             (None, 3)                 93        
=================================================================
Total params: 1,233
Trainable params: 1,233
Non-trainable params: 0
_________________________________________________________________
(tt=4) final loss (avg sq l2): 336.3119
_________________________________________________________________
Layer (type)                 Output Shape              Param #   
=================================================================
dense_76 (Dense)             (None, 30)                210       
_________________________________________________________________
dense_77 (Dense)             (None, 30)                930       
_________________________________________________________________
dense_78 (Dense)             (None, 3)                 93        
=================================================================
Total params: 1,233
Trainable params: 1,233
Non-trainable params: 0
_________________________________________________________________
(tt=5) final loss (avg sq l2): 218.9725
_________________________________________________________________
Layer (type)                 Output Shape              Param #   
=================================================================
dense_79 (Dense)             (None, 30)                210       
_________________________________________________________________
dense_80 (Dense)             (None, 30)                930       
_________________________________________________________________
dense_81 (Dense)             (None, 3)                 93        
=================================================================
Total params: 1,233
Trainable params: 1,233
Non-trainable params: 0
_________________________________________________________________
(tt=6) final loss (avg sq l2): 133.7221
_________________________________________________________________
Layer (type)                 Output Shape              Param #   
=================================================================
dense_82 (Dense)             (None, 30)                210       
_________________________________________________________________
dense_83 (Dense)             (None, 30)                930       
_________________________________________________________________
dense_84 (Dense)             (None, 3)                 93        
=================================================================
Total params: 1,233
Trainable params: 1,233
Non-trainable params: 0
_________________________________________________________________
(tt=7) final loss (avg sq l2): 271.4169
_________________________________________________________________
Layer (type)                 Output Shape              Param #   
=================================================================
dense_85 (Dense)             (None, 30)                210       
_________________________________________________________________
dense_86 (Dense)             (None, 30)                930       
_________________________________________________________________
dense_87 (Dense)             (None, 3)                 93        
=================================================================
Total params: 1,233
Trainable params: 1,233
Non-trainable params: 0
_________________________________________________________________
(tt=8) final loss (avg sq l2): 119.2347
_________________________________________________________________
Layer (type)                 Output Shape              Param #   
=================================================================
dense_88 (Dense)             (None, 30)                210       
_________________________________________________________________
dense_89 (Dense)             (None, 30)                930       
_________________________________________________________________
dense_90 (Dense)             (None, 3)                 93        
=================================================================
Total params: 1,233
Trainable params: 1,233
Non-trainable params: 0
_________________________________________________________________
(tt=9) final loss (avg sq l2): 212.9732
mean over folds: 244.9894


NOW DOING: DNN

num_hidden: 2, num_units: 30, nonlin: tanh
_________________________________________________________________
Layer (type)                 Output Shape              Param #   
=================================================================
dense_91 (Dense)             (None, 30)                210       
_________________________________________________________________
dense_92 (Dense)             (None, 30)                930       
_________________________________________________________________
dense_93 (Dense)             (None, 3)                 93        
=================================================================
Total params: 1,233
Trainable params: 1,233
Non-trainable params: 0
_________________________________________________________________
(tt=0) final loss (avg sq l2): 103.5626
_________________________________________________________________
Layer (type)                 Output Shape              Param #   
=================================================================
dense_94 (Dense)             (None, 30)                210       
_________________________________________________________________
dense_95 (Dense)             (None, 30)                930       
_________________________________________________________________
dense_96 (Dense)             (None, 3)                 93        
=================================================================
Total params: 1,233
Trainable params: 1,233
Non-trainable params: 0
_________________________________________________________________
(tt=1) final loss (avg sq l2): 66.1182
_________________________________________________________________
Layer (type)                 Output Shape              Param #   
=================================================================
dense_97 (Dense)             (None, 30)                210       
_________________________________________________________________
dense_98 (Dense)             (None, 30)                930       
_________________________________________________________________
dense_99 (Dense)             (None, 3)                 93        
=================================================================
Total params: 1,233
Trainable params: 1,233
Non-trainable params: 0
_________________________________________________________________
(tt=2) final loss (avg sq l2): 219.1719
_________________________________________________________________
Layer (type)                 Output Shape              Param #   
=================================================================
dense_100 (Dense)            (None, 30)                210       
_________________________________________________________________
dense_101 (Dense)            (None, 30)                930       
_________________________________________________________________
dense_102 (Dense)            (None, 3)                 93        
=================================================================
Total params: 1,233
Trainable params: 1,233
Non-trainable params: 0
_________________________________________________________________
(tt=3) final loss (avg sq l2): 71.7061
_________________________________________________________________
Layer (type)                 Output Shape              Param #   
=================================================================
dense_103 (Dense)            (None, 30)                210       
_________________________________________________________________
dense_104 (Dense)            (None, 30)                930       
_________________________________________________________________
dense_105 (Dense)            (None, 3)                 93        
=================================================================
Total params: 1,233
Trainable params: 1,233
Non-trainable params: 0
_________________________________________________________________
(tt=4) final loss (avg sq l2): 278.5637
_________________________________________________________________
Layer (type)                 Output Shape              Param #   
=================================================================
dense_106 (Dense)            (None, 30)                210       
_________________________________________________________________
dense_107 (Dense)            (None, 30)                930       
_________________________________________________________________
dense_108 (Dense)            (None, 3)                 93        
=================================================================
Total params: 1,233
Trainable params: 1,233
Non-trainable params: 0
_________________________________________________________________
(tt=5) final loss (avg sq l2): 30.0482
_________________________________________________________________
Layer (type)                 Output Shape              Param #   
=================================================================
dense_109 (Dense)            (None, 30)                210       
_________________________________________________________________
dense_110 (Dense)            (None, 30)                930       
_________________________________________________________________
dense_111 (Dense)            (None, 3)                 93        
=================================================================
Total params: 1,233
Trainable params: 1,233
Non-trainable params: 0
_________________________________________________________________
(tt=6) final loss (avg sq l2): 82.7578
_________________________________________________________________
Layer (type)                 Output Shape              Param #   
=================================================================
dense_112 (Dense)            (None, 30)                210       
_________________________________________________________________
dense_113 (Dense)            (None, 30)                930       
_________________________________________________________________
dense_114 (Dense)            (None, 3)                 93        
=================================================================
Total params: 1,233
Trainable params: 1,233
Non-trainable params: 0
_________________________________________________________________
(tt=7) final loss (avg sq l2): 132.7799
_________________________________________________________________
Layer (type)                 Output Shape              Param #   
=================================================================
dense_115 (Dense)            (None, 30)                210       
_________________________________________________________________
dense_116 (Dense)            (None, 30)                930       
_________________________________________________________________
dense_117 (Dense)            (None, 3)                 93        
=================================================================
Total params: 1,233
Trainable params: 1,233
Non-trainable params: 0
_________________________________________________________________
(tt=8) final loss (avg sq l2): 84.0718
_________________________________________________________________
Layer (type)                 Output Shape              Param #   
=================================================================
dense_118 (Dense)            (None, 30)                210       
_________________________________________________________________
dense_119 (Dense)            (None, 30)                930       
_________________________________________________________________
dense_120 (Dense)            (None, 3)                 93        
=================================================================
Total params: 1,233
Trainable params: 1,233
Non-trainable params: 0
_________________________________________________________________
(tt=9) final loss (avg sq l2): 117.1474
mean over folds: 118.5928


NOW DOING: DNN

num_hidden: 2, num_units: 30, nonlin: relu
_________________________________________________________________
Layer (type)                 Output Shape              Param #   
=================================================================
dense_121 (Dense)            (None, 30)                210       
_________________________________________________________________
dense_122 (Dense)            (None, 30)                930       
_________________________________________________________________
dense_123 (Dense)            (None, 3)                 93        
=================================================================
Total params: 1,233
Trainable params: 1,233
Non-trainable params: 0
_________________________________________________________________
(tt=0) final loss (avg sq l2): 2.4798
_________________________________________________________________
Layer (type)                 Output Shape              Param #   
=================================================================
dense_124 (Dense)            (None, 30)                210       
_________________________________________________________________
dense_125 (Dense)            (None, 30)                930       
_________________________________________________________________
dense_126 (Dense)            (None, 3)                 93        
=================================================================
Total params: 1,233
Trainable params: 1,233
Non-trainable params: 0
_________________________________________________________________
(tt=1) final loss (avg sq l2): 2.4840
_________________________________________________________________
Layer (type)                 Output Shape              Param #   
=================================================================
dense_127 (Dense)            (None, 30)                210       
_________________________________________________________________
dense_128 (Dense)            (None, 30)                930       
_________________________________________________________________
dense_129 (Dense)            (None, 3)                 93        
=================================================================
Total params: 1,233
Trainable params: 1,233
Non-trainable params: 0
_________________________________________________________________
(tt=2) final loss (avg sq l2): 2.8556
_________________________________________________________________
Layer (type)                 Output Shape              Param #   
=================================================================
dense_130 (Dense)            (None, 30)                210       
_________________________________________________________________
dense_131 (Dense)            (None, 30)                930       
_________________________________________________________________
dense_132 (Dense)            (None, 3)                 93        
=================================================================
Total params: 1,233
Trainable params: 1,233
Non-trainable params: 0
_________________________________________________________________
(tt=3) final loss (avg sq l2): 2.4028
_________________________________________________________________
Layer (type)                 Output Shape              Param #   
=================================================================
dense_133 (Dense)            (None, 30)                210       
_________________________________________________________________
dense_134 (Dense)            (None, 30)                930       
_________________________________________________________________
dense_135 (Dense)            (None, 3)                 93        
=================================================================
Total params: 1,233
Trainable params: 1,233
Non-trainable params: 0
_________________________________________________________________
(tt=4) final loss (avg sq l2): 2.9853
_________________________________________________________________
Layer (type)                 Output Shape              Param #   
=================================================================
dense_136 (Dense)            (None, 30)                210       
_________________________________________________________________
dense_137 (Dense)            (None, 30)                930       
_________________________________________________________________
dense_138 (Dense)            (None, 3)                 93        
=================================================================
Total params: 1,233
Trainable params: 1,233
Non-trainable params: 0
_________________________________________________________________
(tt=5) final loss (avg sq l2): 2.4310
_________________________________________________________________
Layer (type)                 Output Shape              Param #   
=================================================================
dense_139 (Dense)            (None, 30)                210       
_________________________________________________________________
dense_140 (Dense)            (None, 30)                930       
_________________________________________________________________
dense_141 (Dense)            (None, 3)                 93        
=================================================================
Total params: 1,233
Trainable params: 1,233
Non-trainable params: 0
_________________________________________________________________
(tt=6) final loss (avg sq l2): 2.9463
_________________________________________________________________
Layer (type)                 Output Shape              Param #   
=================================================================
dense_142 (Dense)            (None, 30)                210       
_________________________________________________________________
dense_143 (Dense)            (None, 30)                930       
_________________________________________________________________
dense_144 (Dense)            (None, 3)                 93        
=================================================================
Total params: 1,233
Trainable params: 1,233
Non-trainable params: 0
_________________________________________________________________
(tt=7) final loss (avg sq l2): 2.5416
_________________________________________________________________
Layer (type)                 Output Shape              Param #   
=================================================================
dense_145 (Dense)            (None, 30)                210       
_________________________________________________________________
dense_146 (Dense)            (None, 30)                930       
_________________________________________________________________
dense_147 (Dense)            (None, 3)                 93        
=================================================================
Total params: 1,233
Trainable params: 1,233
Non-trainable params: 0
_________________________________________________________________
(tt=8) final loss (avg sq l2): 2.8350
_________________________________________________________________
Layer (type)                 Output Shape              Param #   
=================================================================
dense_148 (Dense)            (None, 30)                210       
_________________________________________________________________
dense_149 (Dense)            (None, 30)                930       
_________________________________________________________________
dense_150 (Dense)            (None, 3)                 93        
=================================================================
Total params: 1,233
Trainable params: 1,233
Non-trainable params: 0
_________________________________________________________________
(tt=9) final loss (avg sq l2): 2.2513
mean over folds: 2.6213


NOW DOING: DNN

num_hidden: 3, num_units: 30, nonlin: sigmoid
_________________________________________________________________
Layer (type)                 Output Shape              Param #   
=================================================================
dense_151 (Dense)            (None, 30)                210       
_________________________________________________________________
dense_152 (Dense)            (None, 30)                930       
_________________________________________________________________
dense_153 (Dense)            (None, 30)                930       
_________________________________________________________________
dense_154 (Dense)            (None, 3)                 93        
=================================================================
Total params: 2,163
Trainable params: 2,163
Non-trainable params: 0
_________________________________________________________________
(tt=0) final loss (avg sq l2): 281.5302
_________________________________________________________________
Layer (type)                 Output Shape              Param #   
=================================================================
dense_155 (Dense)            (None, 30)                210       
_________________________________________________________________
dense_156 (Dense)            (None, 30)                930       
_________________________________________________________________
dense_157 (Dense)            (None, 30)                930       
_________________________________________________________________
dense_158 (Dense)            (None, 3)                 93        
=================================================================
Total params: 2,163
Trainable params: 2,163
Non-trainable params: 0
_________________________________________________________________
(tt=1) final loss (avg sq l2): 138.3348
_________________________________________________________________
Layer (type)                 Output Shape              Param #   
=================================================================
dense_159 (Dense)            (None, 30)                210       
_________________________________________________________________
dense_160 (Dense)            (None, 30)                930       
_________________________________________________________________
dense_161 (Dense)            (None, 30)                930       
_________________________________________________________________
dense_162 (Dense)            (None, 3)                 93        
=================================================================
Total params: 2,163
Trainable params: 2,163
Non-trainable params: 0
_________________________________________________________________
(tt=2) final loss (avg sq l2): 261.1226
_________________________________________________________________
Layer (type)                 Output Shape              Param #   
=================================================================
dense_163 (Dense)            (None, 30)                210       
_________________________________________________________________
dense_164 (Dense)            (None, 30)                930       
_________________________________________________________________
dense_165 (Dense)            (None, 30)                930       
_________________________________________________________________
dense_166 (Dense)            (None, 3)                 93        
=================================================================
Total params: 2,163
Trainable params: 2,163
Non-trainable params: 0
_________________________________________________________________
(tt=3) final loss (avg sq l2): 366.2546
_________________________________________________________________
Layer (type)                 Output Shape              Param #   
=================================================================
dense_167 (Dense)            (None, 30)                210       
_________________________________________________________________
dense_168 (Dense)            (None, 30)                930       
_________________________________________________________________
dense_169 (Dense)            (None, 30)                930       
_________________________________________________________________
dense_170 (Dense)            (None, 3)                 93        
=================================================================
Total params: 2,163
Trainable params: 2,163
Non-trainable params: 0
_________________________________________________________________
(tt=4) final loss (avg sq l2): 248.8798
_________________________________________________________________
Layer (type)                 Output Shape              Param #   
=================================================================
dense_171 (Dense)            (None, 30)                210       
_________________________________________________________________
dense_172 (Dense)            (None, 30)                930       
_________________________________________________________________
dense_173 (Dense)            (None, 30)                930       
_________________________________________________________________
dense_174 (Dense)            (None, 3)                 93        
=================================================================
Total params: 2,163
Trainable params: 2,163
Non-trainable params: 0
_________________________________________________________________
(tt=5) final loss (avg sq l2): 77.0481
_________________________________________________________________
Layer (type)                 Output Shape              Param #   
=================================================================
dense_175 (Dense)            (None, 30)                210       
_________________________________________________________________
dense_176 (Dense)            (None, 30)                930       
_________________________________________________________________
dense_177 (Dense)            (None, 30)                930       
_________________________________________________________________
dense_178 (Dense)            (None, 3)                 93        
=================================================================
Total params: 2,163
Trainable params: 2,163
Non-trainable params: 0
_________________________________________________________________
(tt=6) final loss (avg sq l2): 165.4310
_________________________________________________________________
Layer (type)                 Output Shape              Param #   
=================================================================
dense_179 (Dense)            (None, 30)                210       
_________________________________________________________________
dense_180 (Dense)            (None, 30)                930       
_________________________________________________________________
dense_181 (Dense)            (None, 30)                930       
_________________________________________________________________
dense_182 (Dense)            (None, 3)                 93        
=================================================================
Total params: 2,163
Trainable params: 2,163
Non-trainable params: 0
_________________________________________________________________
(tt=7) final loss (avg sq l2): 370.8928
_________________________________________________________________
Layer (type)                 Output Shape              Param #   
=================================================================
dense_183 (Dense)            (None, 30)                210       
_________________________________________________________________
dense_184 (Dense)            (None, 30)                930       
_________________________________________________________________
dense_185 (Dense)            (None, 30)                930       
_________________________________________________________________
dense_186 (Dense)            (None, 3)                 93        
=================================================================
Total params: 2,163
Trainable params: 2,163
Non-trainable params: 0
_________________________________________________________________
(tt=8) final loss (avg sq l2): 307.0493
_________________________________________________________________
Layer (type)                 Output Shape              Param #   
=================================================================
dense_187 (Dense)            (None, 30)                210       
_________________________________________________________________
dense_188 (Dense)            (None, 30)                930       
_________________________________________________________________
dense_189 (Dense)            (None, 30)                930       
_________________________________________________________________
dense_190 (Dense)            (None, 3)                 93        
=================================================================
Total params: 2,163
Trainable params: 2,163
Non-trainable params: 0
_________________________________________________________________
(tt=9) final loss (avg sq l2): 207.5298
mean over folds: 242.4073


NOW DOING: DNN

num_hidden: 3, num_units: 30, nonlin: tanh
_________________________________________________________________
Layer (type)                 Output Shape              Param #   
=================================================================
dense_191 (Dense)            (None, 30)                210       
_________________________________________________________________
dense_192 (Dense)            (None, 30)                930       
_________________________________________________________________
dense_193 (Dense)            (None, 30)                930       
_________________________________________________________________
dense_194 (Dense)            (None, 3)                 93        
=================================================================
Total params: 2,163
Trainable params: 2,163
Non-trainable params: 0
_________________________________________________________________
(tt=0) final loss (avg sq l2): 142.1179
_________________________________________________________________
Layer (type)                 Output Shape              Param #   
=================================================================
dense_195 (Dense)            (None, 30)                210       
_________________________________________________________________
dense_196 (Dense)            (None, 30)                930       
_________________________________________________________________
dense_197 (Dense)            (None, 30)                930       
_________________________________________________________________
dense_198 (Dense)            (None, 3)                 93        
=================================================================
Total params: 2,163
Trainable params: 2,163
Non-trainable params: 0
_________________________________________________________________
(tt=1) final loss (avg sq l2): 371.5253
_________________________________________________________________
Layer (type)                 Output Shape              Param #   
=================================================================
dense_199 (Dense)            (None, 30)                210       
_________________________________________________________________
dense_200 (Dense)            (None, 30)                930       
_________________________________________________________________
dense_201 (Dense)            (None, 30)                930       
_________________________________________________________________
dense_202 (Dense)            (None, 3)                 93        
=================================================================
Total params: 2,163
Trainable params: 2,163
Non-trainable params: 0
_________________________________________________________________
(tt=2) final loss (avg sq l2): 114.1847
_________________________________________________________________
Layer (type)                 Output Shape              Param #   
=================================================================
dense_203 (Dense)            (None, 30)                210       
_________________________________________________________________
dense_204 (Dense)            (None, 30)                930       
_________________________________________________________________
dense_205 (Dense)            (None, 30)                930       
_________________________________________________________________
dense_206 (Dense)            (None, 3)                 93        
=================================================================
Total params: 2,163
Trainable params: 2,163
Non-trainable params: 0
_________________________________________________________________
(tt=3) final loss (avg sq l2): 571.4389
_________________________________________________________________
Layer (type)                 Output Shape              Param #   
=================================================================
dense_207 (Dense)            (None, 30)                210       
_________________________________________________________________
dense_208 (Dense)            (None, 30)                930       
_________________________________________________________________
dense_209 (Dense)            (None, 30)                930       
_________________________________________________________________
dense_210 (Dense)            (None, 3)                 93        
=================================================================
Total params: 2,163
Trainable params: 2,163
Non-trainable params: 0
_________________________________________________________________
(tt=4) final loss (avg sq l2): 202.6211
_________________________________________________________________
Layer (type)                 Output Shape              Param #   
=================================================================
dense_211 (Dense)            (None, 30)                210       
_________________________________________________________________
dense_212 (Dense)            (None, 30)                930       
_________________________________________________________________
dense_213 (Dense)            (None, 30)                930       
_________________________________________________________________
dense_214 (Dense)            (None, 3)                 93        
=================================================================
Total params: 2,163
Trainable params: 2,163
Non-trainable params: 0
_________________________________________________________________
(tt=5) final loss (avg sq l2): 491.2053
_________________________________________________________________
Layer (type)                 Output Shape              Param #   
=================================================================
dense_215 (Dense)            (None, 30)                210       
_________________________________________________________________
dense_216 (Dense)            (None, 30)                930       
_________________________________________________________________
dense_217 (Dense)            (None, 30)                930       
_________________________________________________________________
dense_218 (Dense)            (None, 3)                 93        
=================================================================
Total params: 2,163
Trainable params: 2,163
Non-trainable params: 0
_________________________________________________________________
(tt=6) final loss (avg sq l2): 102.6979
_________________________________________________________________
Layer (type)                 Output Shape              Param #   
=================================================================
dense_219 (Dense)            (None, 30)                210       
_________________________________________________________________
dense_220 (Dense)            (None, 30)                930       
_________________________________________________________________
dense_221 (Dense)            (None, 30)                930       
_________________________________________________________________
dense_222 (Dense)            (None, 3)                 93        
=================================================================
Total params: 2,163
Trainable params: 2,163
Non-trainable params: 0
_________________________________________________________________
(tt=7) final loss (avg sq l2): 477.9828
_________________________________________________________________
Layer (type)                 Output Shape              Param #   
=================================================================
dense_223 (Dense)            (None, 30)                210       
_________________________________________________________________
dense_224 (Dense)            (None, 30)                930       
_________________________________________________________________
dense_225 (Dense)            (None, 30)                930       
_________________________________________________________________
dense_226 (Dense)            (None, 3)                 93        
=================================================================
Total params: 2,163
Trainable params: 2,163
Non-trainable params: 0
_________________________________________________________________
(tt=8) final loss (avg sq l2): 174.4908
_________________________________________________________________
Layer (type)                 Output Shape              Param #   
=================================================================
dense_227 (Dense)            (None, 30)                210       
_________________________________________________________________
dense_228 (Dense)            (None, 30)                930       
_________________________________________________________________
dense_229 (Dense)            (None, 30)                930       
_________________________________________________________________
dense_230 (Dense)            (None, 3)                 93        
=================================================================
Total params: 2,163
Trainable params: 2,163
Non-trainable params: 0
_________________________________________________________________
(tt=9) final loss (avg sq l2): 457.8269
mean over folds: 310.6092


NOW DOING: DNN

num_hidden: 3, num_units: 30, nonlin: relu
_________________________________________________________________
Layer (type)                 Output Shape              Param #   
=================================================================
dense_231 (Dense)            (None, 30)                210       
_________________________________________________________________
dense_232 (Dense)            (None, 30)                930       
_________________________________________________________________
dense_233 (Dense)            (None, 30)                930       
_________________________________________________________________
dense_234 (Dense)            (None, 3)                 93        
=================================================================
Total params: 2,163
Trainable params: 2,163
Non-trainable params: 0
_________________________________________________________________
(tt=0) final loss (avg sq l2): 2.0894
_________________________________________________________________
Layer (type)                 Output Shape              Param #   
=================================================================
dense_235 (Dense)            (None, 30)                210       
_________________________________________________________________
dense_236 (Dense)            (None, 30)                930       
_________________________________________________________________
dense_237 (Dense)            (None, 30)                930       
_________________________________________________________________
dense_238 (Dense)            (None, 3)                 93        
=================================================================
Total params: 2,163
Trainable params: 2,163
Non-trainable params: 0
_________________________________________________________________
(tt=1) final loss (avg sq l2): 1.9344
_________________________________________________________________
Layer (type)                 Output Shape              Param #   
=================================================================
dense_239 (Dense)            (None, 30)                210       
_________________________________________________________________
dense_240 (Dense)            (None, 30)                930       
_________________________________________________________________
dense_241 (Dense)            (None, 30)                930       
_________________________________________________________________
dense_242 (Dense)            (None, 3)                 93        
=================================================================
Total params: 2,163
Trainable params: 2,163
Non-trainable params: 0
_________________________________________________________________
(tt=2) final loss (avg sq l2): 2.7389
_________________________________________________________________
Layer (type)                 Output Shape              Param #   
=================================================================
dense_243 (Dense)            (None, 30)                210       
_________________________________________________________________
dense_244 (Dense)            (None, 30)                930       
_________________________________________________________________
dense_245 (Dense)            (None, 30)                930       
_________________________________________________________________
dense_246 (Dense)            (None, 3)                 93        
=================================================================
Total params: 2,163
Trainable params: 2,163
Non-trainable params: 0
_________________________________________________________________
(tt=3) final loss (avg sq l2): 2.0798
_________________________________________________________________
Layer (type)                 Output Shape              Param #   
=================================================================
dense_247 (Dense)            (None, 30)                210       
_________________________________________________________________
dense_248 (Dense)            (None, 30)                930       
_________________________________________________________________
dense_249 (Dense)            (None, 30)                930       
_________________________________________________________________
dense_250 (Dense)            (None, 3)                 93        
=================================================================
Total params: 2,163
Trainable params: 2,163
Non-trainable params: 0
_________________________________________________________________
(tt=4) final loss (avg sq l2): 3.8999
_________________________________________________________________
Layer (type)                 Output Shape              Param #   
=================================================================
dense_251 (Dense)            (None, 30)                210       
_________________________________________________________________
dense_252 (Dense)            (None, 30)                930       
_________________________________________________________________
dense_253 (Dense)            (None, 30)                930       
_________________________________________________________________
dense_254 (Dense)            (None, 3)                 93        
=================================================================
Total params: 2,163
Trainable params: 2,163
Non-trainable params: 0
_________________________________________________________________
(tt=5) final loss (avg sq l2): 2.1445
_________________________________________________________________
Layer (type)                 Output Shape              Param #   
=================================================================
dense_255 (Dense)            (None, 30)                210       
_________________________________________________________________
dense_256 (Dense)            (None, 30)                930       
_________________________________________________________________
dense_257 (Dense)            (None, 30)                930       
_________________________________________________________________
dense_258 (Dense)            (None, 3)                 93        
=================================================================
Total params: 2,163
Trainable params: 2,163
Non-trainable params: 0
_________________________________________________________________
(tt=6) final loss (avg sq l2): 2.1576
_________________________________________________________________
Layer (type)                 Output Shape              Param #   
=================================================================
dense_259 (Dense)            (None, 30)                210       
_________________________________________________________________
dense_260 (Dense)            (None, 30)                930       
_________________________________________________________________
dense_261 (Dense)            (None, 30)                930       
_________________________________________________________________
dense_262 (Dense)            (None, 3)                 93        
=================================================================
Total params: 2,163
Trainable params: 2,163
Non-trainable params: 0
_________________________________________________________________
(tt=7) final loss (avg sq l2): 2.8508
_________________________________________________________________
Layer (type)                 Output Shape              Param #   
=================================================================
dense_263 (Dense)            (None, 30)                210       
_________________________________________________________________
dense_264 (Dense)            (None, 30)                930       
_________________________________________________________________
dense_265 (Dense)            (None, 30)                930       
_________________________________________________________________
dense_266 (Dense)            (None, 3)                 93        
=================================================================
Total params: 2,163
Trainable params: 2,163
Non-trainable params: 0
_________________________________________________________________
(tt=8) final loss (avg sq l2): 2.2522
_________________________________________________________________
Layer (type)                 Output Shape              Param #   
=================================================================
dense_267 (Dense)            (None, 30)                210       
_________________________________________________________________
dense_268 (Dense)            (None, 30)                930       
_________________________________________________________________
dense_269 (Dense)            (None, 30)                930       
_________________________________________________________________
dense_270 (Dense)            (None, 3)                 93        
=================================================================
Total params: 2,163
Trainable params: 2,163
Non-trainable params: 0
_________________________________________________________________
(tt=9) final loss (avg sq l2): 2.1082
mean over folds: 2.4256


NOW DOING: DNN

num_hidden: 1, num_units: 300, nonlin: sigmoid
_________________________________________________________________
Layer (type)                 Output Shape              Param #   
=================================================================
dense_271 (Dense)            (None, 300)               2100      
_________________________________________________________________
dense_272 (Dense)            (None, 3)                 903       
=================================================================
Total params: 3,003
Trainable params: 3,003
Non-trainable params: 0
_________________________________________________________________
(tt=0) final loss (avg sq l2): 1.8495
_________________________________________________________________
Layer (type)                 Output Shape              Param #   
=================================================================
dense_273 (Dense)            (None, 300)               2100      
_________________________________________________________________
dense_274 (Dense)            (None, 3)                 903       
=================================================================
Total params: 3,003
Trainable params: 3,003
Non-trainable params: 0
_________________________________________________________________
(tt=1) final loss (avg sq l2): 2.2490
_________________________________________________________________
Layer (type)                 Output Shape              Param #   
=================================================================
dense_275 (Dense)            (None, 300)               2100      
_________________________________________________________________
dense_276 (Dense)            (None, 3)                 903       
=================================================================
Total params: 3,003
Trainable params: 3,003
Non-trainable params: 0
_________________________________________________________________
(tt=2) final loss (avg sq l2): 1.9224
_________________________________________________________________
Layer (type)                 Output Shape              Param #   
=================================================================
dense_277 (Dense)            (None, 300)               2100      
_________________________________________________________________
dense_278 (Dense)            (None, 3)                 903       
=================================================================
Total params: 3,003
Trainable params: 3,003
Non-trainable params: 0
_________________________________________________________________
(tt=3) final loss (avg sq l2): 2.1305
_________________________________________________________________
Layer (type)                 Output Shape              Param #   
=================================================================
dense_279 (Dense)            (None, 300)               2100      
_________________________________________________________________
dense_280 (Dense)            (None, 3)                 903       
=================================================================
Total params: 3,003
Trainable params: 3,003
Non-trainable params: 0
_________________________________________________________________
(tt=4) final loss (avg sq l2): 2.4016
_________________________________________________________________
Layer (type)                 Output Shape              Param #   
=================================================================
dense_281 (Dense)            (None, 300)               2100      
_________________________________________________________________
dense_282 (Dense)            (None, 3)                 903       
=================================================================
Total params: 3,003
Trainable params: 3,003
Non-trainable params: 0
_________________________________________________________________
(tt=5) final loss (avg sq l2): 2.1632
_________________________________________________________________
Layer (type)                 Output Shape              Param #   
=================================================================
dense_283 (Dense)            (None, 300)               2100      
_________________________________________________________________
dense_284 (Dense)            (None, 3)                 903       
=================================================================
Total params: 3,003
Trainable params: 3,003
Non-trainable params: 0
_________________________________________________________________
(tt=6) final loss (avg sq l2): 2.1788
_________________________________________________________________
Layer (type)                 Output Shape              Param #   
=================================================================
dense_285 (Dense)            (None, 300)               2100      
_________________________________________________________________
dense_286 (Dense)            (None, 3)                 903       
=================================================================
Total params: 3,003
Trainable params: 3,003
Non-trainable params: 0
_________________________________________________________________
(tt=7) final loss (avg sq l2): 1.8704
_________________________________________________________________
Layer (type)                 Output Shape              Param #   
=================================================================
dense_287 (Dense)            (None, 300)               2100      
_________________________________________________________________
dense_288 (Dense)            (None, 3)                 903       
=================================================================
Total params: 3,003
Trainable params: 3,003
Non-trainable params: 0
_________________________________________________________________
(tt=8) final loss (avg sq l2): 1.7373
_________________________________________________________________
Layer (type)                 Output Shape              Param #   
=================================================================
dense_289 (Dense)            (None, 300)               2100      
_________________________________________________________________
dense_290 (Dense)            (None, 3)                 903       
=================================================================
Total params: 3,003
Trainable params: 3,003
Non-trainable params: 0
_________________________________________________________________
(tt=9) final loss (avg sq l2): 2.0821
mean over folds: 2.0585


NOW DOING: DNN

num_hidden: 1, num_units: 300, nonlin: tanh
_________________________________________________________________
Layer (type)                 Output Shape              Param #   
=================================================================
dense_291 (Dense)            (None, 300)               2100      
_________________________________________________________________
dense_292 (Dense)            (None, 3)                 903       
=================================================================
Total params: 3,003
Trainable params: 3,003
Non-trainable params: 0
_________________________________________________________________
(tt=0) final loss (avg sq l2): 1.5718
_________________________________________________________________
Layer (type)                 Output Shape              Param #   
=================================================================
dense_293 (Dense)            (None, 300)               2100      
_________________________________________________________________
dense_294 (Dense)            (None, 3)                 903       
=================================================================
Total params: 3,003
Trainable params: 3,003
Non-trainable params: 0
_________________________________________________________________
(tt=1) final loss (avg sq l2): 1.6567
_________________________________________________________________
Layer (type)                 Output Shape              Param #   
=================================================================
dense_295 (Dense)            (None, 300)               2100      
_________________________________________________________________
dense_296 (Dense)            (None, 3)                 903       
=================================================================
Total params: 3,003
Trainable params: 3,003
Non-trainable params: 0
_________________________________________________________________
(tt=2) final loss (avg sq l2): 1.9979
_________________________________________________________________
Layer (type)                 Output Shape              Param #   
=================================================================
dense_297 (Dense)            (None, 300)               2100      
_________________________________________________________________
dense_298 (Dense)            (None, 3)                 903       
=================================================================
Total params: 3,003
Trainable params: 3,003
Non-trainable params: 0
_________________________________________________________________
(tt=3) final loss (avg sq l2): 1.5515
_________________________________________________________________
Layer (type)                 Output Shape              Param #   
=================================================================
dense_299 (Dense)            (None, 300)               2100      
_________________________________________________________________
dense_300 (Dense)            (None, 3)                 903       
=================================================================
Total params: 3,003
Trainable params: 3,003
Non-trainable params: 0
_________________________________________________________________
(tt=4) final loss (avg sq l2): 1.7128
_________________________________________________________________
Layer (type)                 Output Shape              Param #   
=================================================================
dense_301 (Dense)            (None, 300)               2100      
_________________________________________________________________
dense_302 (Dense)            (None, 3)                 903       
=================================================================
Total params: 3,003
Trainable params: 3,003
Non-trainable params: 0
_________________________________________________________________
(tt=5) final loss (avg sq l2): 1.6015
_________________________________________________________________
Layer (type)                 Output Shape              Param #   
=================================================================
dense_303 (Dense)            (None, 300)               2100      
_________________________________________________________________
dense_304 (Dense)            (None, 3)                 903       
=================================================================
Total params: 3,003
Trainable params: 3,003
Non-trainable params: 0
_________________________________________________________________
(tt=6) final loss (avg sq l2): 1.7875
_________________________________________________________________
Layer (type)                 Output Shape              Param #   
=================================================================
dense_305 (Dense)            (None, 300)               2100      
_________________________________________________________________
dense_306 (Dense)            (None, 3)                 903       
=================================================================
Total params: 3,003
Trainable params: 3,003
Non-trainable params: 0
_________________________________________________________________
(tt=7) final loss (avg sq l2): 1.2211
_________________________________________________________________
Layer (type)                 Output Shape              Param #   
=================================================================
dense_307 (Dense)            (None, 300)               2100      
_________________________________________________________________
dense_308 (Dense)            (None, 3)                 903       
=================================================================
Total params: 3,003
Trainable params: 3,003
Non-trainable params: 0
_________________________________________________________________
(tt=8) final loss (avg sq l2): 1.4311
_________________________________________________________________
Layer (type)                 Output Shape              Param #   
=================================================================
dense_309 (Dense)            (None, 300)               2100      
_________________________________________________________________
dense_310 (Dense)            (None, 3)                 903       
=================================================================
Total params: 3,003
Trainable params: 3,003
Non-trainable params: 0
_________________________________________________________________
(tt=9) final loss (avg sq l2): 1.3639
mean over folds: 1.5896


NOW DOING: DNN

num_hidden: 1, num_units: 300, nonlin: relu
_________________________________________________________________
Layer (type)                 Output Shape              Param #   
=================================================================
dense_311 (Dense)            (None, 300)               2100      
_________________________________________________________________
dense_312 (Dense)            (None, 3)                 903       
=================================================================
Total params: 3,003
Trainable params: 3,003
Non-trainable params: 0
_________________________________________________________________
(tt=0) final loss (avg sq l2): 2.0197
_________________________________________________________________
Layer (type)                 Output Shape              Param #   
=================================================================
dense_313 (Dense)            (None, 300)               2100      
_________________________________________________________________
dense_314 (Dense)            (None, 3)                 903       
=================================================================
Total params: 3,003
Trainable params: 3,003
Non-trainable params: 0
_________________________________________________________________
(tt=1) final loss (avg sq l2): 1.7920
_________________________________________________________________
Layer (type)                 Output Shape              Param #   
=================================================================
dense_315 (Dense)            (None, 300)               2100      
_________________________________________________________________
dense_316 (Dense)            (None, 3)                 903       
=================================================================
Total params: 3,003
Trainable params: 3,003
Non-trainable params: 0
_________________________________________________________________
(tt=2) final loss (avg sq l2): 2.3466
_________________________________________________________________
Layer (type)                 Output Shape              Param #   
=================================================================
dense_317 (Dense)            (None, 300)               2100      
_________________________________________________________________
dense_318 (Dense)            (None, 3)                 903       
=================================================================
Total params: 3,003
Trainable params: 3,003
Non-trainable params: 0
_________________________________________________________________
(tt=3) final loss (avg sq l2): 1.2970
_________________________________________________________________
Layer (type)                 Output Shape              Param #   
=================================================================
dense_319 (Dense)            (None, 300)               2100      
_________________________________________________________________
dense_320 (Dense)            (None, 3)                 903       
=================================================================
Total params: 3,003
Trainable params: 3,003
Non-trainable params: 0
_________________________________________________________________
(tt=4) final loss (avg sq l2): 2.2354
_________________________________________________________________
Layer (type)                 Output Shape              Param #   
=================================================================
dense_321 (Dense)            (None, 300)               2100      
_________________________________________________________________
dense_322 (Dense)            (None, 3)                 903       
=================================================================
Total params: 3,003
Trainable params: 3,003
Non-trainable params: 0
_________________________________________________________________
(tt=5) final loss (avg sq l2): 1.5996
_________________________________________________________________
Layer (type)                 Output Shape              Param #   
=================================================================
dense_323 (Dense)            (None, 300)               2100      
_________________________________________________________________
dense_324 (Dense)            (None, 3)                 903       
=================================================================
Total params: 3,003
Trainable params: 3,003
Non-trainable params: 0
_________________________________________________________________
(tt=6) final loss (avg sq l2): 1.8477
_________________________________________________________________
Layer (type)                 Output Shape              Param #   
=================================================================
dense_325 (Dense)            (None, 300)               2100      
_________________________________________________________________
dense_326 (Dense)            (None, 3)                 903       
=================================================================
Total params: 3,003
Trainable params: 3,003
Non-trainable params: 0
_________________________________________________________________
(tt=7) final loss (avg sq l2): 1.3456
_________________________________________________________________
Layer (type)                 Output Shape              Param #   
=================================================================
dense_327 (Dense)            (None, 300)               2100      
_________________________________________________________________
dense_328 (Dense)            (None, 3)                 903       
=================================================================
Total params: 3,003
Trainable params: 3,003
Non-trainable params: 0
_________________________________________________________________
(tt=8) final loss (avg sq l2): 1.5071
_________________________________________________________________
Layer (type)                 Output Shape              Param #   
=================================================================
dense_329 (Dense)            (None, 300)               2100      
_________________________________________________________________
dense_330 (Dense)            (None, 3)                 903       
=================================================================
Total params: 3,003
Trainable params: 3,003
Non-trainable params: 0
_________________________________________________________________
(tt=9) final loss (avg sq l2): 1.4413
mean over folds: 1.7432


NOW DOING: DNN

num_hidden: 2, num_units: 300, nonlin: sigmoid
_________________________________________________________________
Layer (type)                 Output Shape              Param #   
=================================================================
dense_331 (Dense)            (None, 300)               2100      
_________________________________________________________________
dense_332 (Dense)            (None, 300)               90300     
_________________________________________________________________
dense_333 (Dense)            (None, 3)                 903       
=================================================================
Total params: 93,303
Trainable params: 93,303
Non-trainable params: 0
_________________________________________________________________
(tt=0) final loss (avg sq l2): 1.5880
_________________________________________________________________
Layer (type)                 Output Shape              Param #   
=================================================================
dense_334 (Dense)            (None, 300)               2100      
_________________________________________________________________
dense_335 (Dense)            (None, 300)               90300     
_________________________________________________________________
dense_336 (Dense)            (None, 3)                 903       
=================================================================
Total params: 93,303
Trainable params: 93,303
Non-trainable params: 0
_________________________________________________________________
(tt=1) final loss (avg sq l2): 1.7382
_________________________________________________________________
Layer (type)                 Output Shape              Param #   
=================================================================
dense_337 (Dense)            (None, 300)               2100      
_________________________________________________________________
dense_338 (Dense)            (None, 300)               90300     
_________________________________________________________________
dense_339 (Dense)            (None, 3)                 903       
=================================================================
Total params: 93,303
Trainable params: 93,303
Non-trainable params: 0
_________________________________________________________________
(tt=2) final loss (avg sq l2): 2.0081
_________________________________________________________________
Layer (type)                 Output Shape              Param #   
=================================================================
dense_340 (Dense)            (None, 300)               2100      
_________________________________________________________________
dense_341 (Dense)            (None, 300)               90300     
_________________________________________________________________
dense_342 (Dense)            (None, 3)                 903       
=================================================================
Total params: 93,303
Trainable params: 93,303
Non-trainable params: 0
_________________________________________________________________
(tt=3) final loss (avg sq l2): 1.5352
_________________________________________________________________
Layer (type)                 Output Shape              Param #   
=================================================================
dense_343 (Dense)            (None, 300)               2100      
_________________________________________________________________
dense_344 (Dense)            (None, 300)               90300     
_________________________________________________________________
dense_345 (Dense)            (None, 3)                 903       
=================================================================
Total params: 93,303
Trainable params: 93,303
Non-trainable params: 0
_________________________________________________________________
(tt=4) final loss (avg sq l2): 2.3723
_________________________________________________________________
Layer (type)                 Output Shape              Param #   
=================================================================
dense_346 (Dense)            (None, 300)               2100      
_________________________________________________________________
dense_347 (Dense)            (None, 300)               90300     
_________________________________________________________________
dense_348 (Dense)            (None, 3)                 903       
=================================================================
Total params: 93,303
Trainable params: 93,303
Non-trainable params: 0
_________________________________________________________________
(tt=5) final loss (avg sq l2): 1.7175
_________________________________________________________________
Layer (type)                 Output Shape              Param #   
=================================================================
dense_349 (Dense)            (None, 300)               2100      
_________________________________________________________________
dense_350 (Dense)            (None, 300)               90300     
_________________________________________________________________
dense_351 (Dense)            (None, 3)                 903       
=================================================================
Total params: 93,303
Trainable params: 93,303
Non-trainable params: 0
_________________________________________________________________
(tt=6) final loss (avg sq l2): 2.1218
_________________________________________________________________
Layer (type)                 Output Shape              Param #   
=================================================================
dense_352 (Dense)            (None, 300)               2100      
_________________________________________________________________
dense_353 (Dense)            (None, 300)               90300     
_________________________________________________________________
dense_354 (Dense)            (None, 3)                 903       
=================================================================
Total params: 93,303
Trainable params: 93,303
Non-trainable params: 0
_________________________________________________________________
(tt=7) final loss (avg sq l2): 1.7914
_________________________________________________________________
Layer (type)                 Output Shape              Param #   
=================================================================
dense_355 (Dense)            (None, 300)               2100      
_________________________________________________________________
dense_356 (Dense)            (None, 300)               90300     
_________________________________________________________________
dense_357 (Dense)            (None, 3)                 903       
=================================================================
Total params: 93,303
Trainable params: 93,303
Non-trainable params: 0
_________________________________________________________________
(tt=8) final loss (avg sq l2): 1.8540
_________________________________________________________________
Layer (type)                 Output Shape              Param #   
=================================================================
dense_358 (Dense)            (None, 300)               2100      
_________________________________________________________________
dense_359 (Dense)            (None, 300)               90300     
_________________________________________________________________
dense_360 (Dense)            (None, 3)                 903       
=================================================================
Total params: 93,303
Trainable params: 93,303
Non-trainable params: 0
_________________________________________________________________
(tt=9) final loss (avg sq l2): 1.6316
mean over folds: 1.8358


NOW DOING: DNN

num_hidden: 2, num_units: 300, nonlin: tanh
_________________________________________________________________
Layer (type)                 Output Shape              Param #   
=================================================================
dense_361 (Dense)            (None, 300)               2100      
_________________________________________________________________
dense_362 (Dense)            (None, 300)               90300     
_________________________________________________________________
dense_363 (Dense)            (None, 3)                 903       
=================================================================
Total params: 93,303
Trainable params: 93,303
Non-trainable params: 0
_________________________________________________________________
(tt=0) final loss (avg sq l2): 1.9405
_________________________________________________________________
Layer (type)                 Output Shape              Param #   
=================================================================
dense_364 (Dense)            (None, 300)               2100      
_________________________________________________________________
dense_365 (Dense)            (None, 300)               90300     
_________________________________________________________________
dense_366 (Dense)            (None, 3)                 903       
=================================================================
Total params: 93,303
Trainable params: 93,303
Non-trainable params: 0
_________________________________________________________________
(tt=1) final loss (avg sq l2): 1.4583
_________________________________________________________________
Layer (type)                 Output Shape              Param #   
=================================================================
dense_367 (Dense)            (None, 300)               2100      
_________________________________________________________________
dense_368 (Dense)            (None, 300)               90300     
_________________________________________________________________
dense_369 (Dense)            (None, 3)                 903       
=================================================================
Total params: 93,303
Trainable params: 93,303
Non-trainable params: 0
_________________________________________________________________
(tt=2) final loss (avg sq l2): 2.2183
_________________________________________________________________
Layer (type)                 Output Shape              Param #   
=================================================================
dense_370 (Dense)            (None, 300)               2100      
_________________________________________________________________
dense_371 (Dense)            (None, 300)               90300     
_________________________________________________________________
dense_372 (Dense)            (None, 3)                 903       
=================================================================
Total params: 93,303
Trainable params: 93,303
Non-trainable params: 0
_________________________________________________________________
(tt=3) final loss (avg sq l2): 1.3343
_________________________________________________________________
Layer (type)                 Output Shape              Param #   
=================================================================
dense_373 (Dense)            (None, 300)               2100      
_________________________________________________________________
dense_374 (Dense)            (None, 300)               90300     
_________________________________________________________________
dense_375 (Dense)            (None, 3)                 903       
=================================================================
Total params: 93,303
Trainable params: 93,303
Non-trainable params: 0
_________________________________________________________________
(tt=4) final loss (avg sq l2): 2.1481
_________________________________________________________________
Layer (type)                 Output Shape              Param #   
=================================================================
dense_376 (Dense)            (None, 300)               2100      
_________________________________________________________________
dense_377 (Dense)            (None, 300)               90300     
_________________________________________________________________
dense_378 (Dense)            (None, 3)                 903       
=================================================================
Total params: 93,303
Trainable params: 93,303
Non-trainable params: 0
_________________________________________________________________
(tt=5) final loss (avg sq l2): 1.5464
_________________________________________________________________
Layer (type)                 Output Shape              Param #   
=================================================================
dense_379 (Dense)            (None, 300)               2100      
_________________________________________________________________
dense_380 (Dense)            (None, 300)               90300     
_________________________________________________________________
dense_381 (Dense)            (None, 3)                 903       
=================================================================
Total params: 93,303
Trainable params: 93,303
Non-trainable params: 0
_________________________________________________________________
(tt=6) final loss (avg sq l2): 1.5346
_________________________________________________________________
Layer (type)                 Output Shape              Param #   
=================================================================
dense_382 (Dense)            (None, 300)               2100      
_________________________________________________________________
dense_383 (Dense)            (None, 300)               90300     
_________________________________________________________________
dense_384 (Dense)            (None, 3)                 903       
=================================================================
Total params: 93,303
Trainable params: 93,303
Non-trainable params: 0
_________________________________________________________________
(tt=7) final loss (avg sq l2): 1.8222
_________________________________________________________________
Layer (type)                 Output Shape              Param #   
=================================================================
dense_385 (Dense)            (None, 300)               2100      
_________________________________________________________________
dense_386 (Dense)            (None, 300)               90300     
_________________________________________________________________
dense_387 (Dense)            (None, 3)                 903       
=================================================================
Total params: 93,303
Trainable params: 93,303
Non-trainable params: 0
_________________________________________________________________
(tt=8) final loss (avg sq l2): 1.4177
_________________________________________________________________
Layer (type)                 Output Shape              Param #   
=================================================================
dense_388 (Dense)            (None, 300)               2100      
_________________________________________________________________
dense_389 (Dense)            (None, 300)               90300     
_________________________________________________________________
dense_390 (Dense)            (None, 3)                 903       
=================================================================
Total params: 93,303
Trainable params: 93,303
Non-trainable params: 0
_________________________________________________________________
(tt=9) final loss (avg sq l2): 1.0639
mean over folds: 1.6484


NOW DOING: DNN

num_hidden: 2, num_units: 300, nonlin: relu
_________________________________________________________________
Layer (type)                 Output Shape              Param #   
=================================================================
dense_391 (Dense)            (None, 300)               2100      
_________________________________________________________________
dense_392 (Dense)            (None, 300)               90300     
_________________________________________________________________
dense_393 (Dense)            (None, 3)                 903       
=================================================================
Total params: 93,303
Trainable params: 93,303
Non-trainable params: 0
_________________________________________________________________
(tt=0) final loss (avg sq l2): 1.8571
_________________________________________________________________
Layer (type)                 Output Shape              Param #   
=================================================================
dense_394 (Dense)            (None, 300)               2100      
_________________________________________________________________
dense_395 (Dense)            (None, 300)               90300     
_________________________________________________________________
dense_396 (Dense)            (None, 3)                 903       
=================================================================
Total params: 93,303
Trainable params: 93,303
Non-trainable params: 0
_________________________________________________________________
(tt=1) final loss (avg sq l2): 2.1447
_________________________________________________________________
Layer (type)                 Output Shape              Param #   
=================================================================
dense_397 (Dense)            (None, 300)               2100      
_________________________________________________________________
dense_398 (Dense)            (None, 300)               90300     
_________________________________________________________________
dense_399 (Dense)            (None, 3)                 903       
=================================================================
Total params: 93,303
Trainable params: 93,303
Non-trainable params: 0
_________________________________________________________________
(tt=2) final loss (avg sq l2): 2.6181
_________________________________________________________________
Layer (type)                 Output Shape              Param #   
=================================================================
dense_400 (Dense)            (None, 300)               2100      
_________________________________________________________________
dense_401 (Dense)            (None, 300)               90300     
_________________________________________________________________
dense_402 (Dense)            (None, 3)                 903       
=================================================================
Total params: 93,303
Trainable params: 93,303
Non-trainable params: 0
_________________________________________________________________
(tt=3) final loss (avg sq l2): 1.7398
_________________________________________________________________
Layer (type)                 Output Shape              Param #   
=================================================================
dense_403 (Dense)            (None, 300)               2100      
_________________________________________________________________
dense_404 (Dense)            (None, 300)               90300     
_________________________________________________________________
dense_405 (Dense)            (None, 3)                 903       
=================================================================
Total params: 93,303
Trainable params: 93,303
Non-trainable params: 0
_________________________________________________________________
(tt=4) final loss (avg sq l2): 2.4254
_________________________________________________________________
Layer (type)                 Output Shape              Param #   
=================================================================
dense_406 (Dense)            (None, 300)               2100      
_________________________________________________________________
dense_407 (Dense)            (None, 300)               90300     
_________________________________________________________________
dense_408 (Dense)            (None, 3)                 903       
=================================================================
Total params: 93,303
Trainable params: 93,303
Non-trainable params: 0
_________________________________________________________________
(tt=5) final loss (avg sq l2): 1.6204
_________________________________________________________________
Layer (type)                 Output Shape              Param #   
=================================================================
dense_409 (Dense)            (None, 300)               2100      
_________________________________________________________________
dense_410 (Dense)            (None, 300)               90300     
_________________________________________________________________
dense_411 (Dense)            (None, 3)                 903       
=================================================================
Total params: 93,303
Trainable params: 93,303
Non-trainable params: 0
_________________________________________________________________
(tt=6) final loss (avg sq l2): 1.8460
_________________________________________________________________
Layer (type)                 Output Shape              Param #   
=================================================================
dense_412 (Dense)            (None, 300)               2100      
_________________________________________________________________
dense_413 (Dense)            (None, 300)               90300     
_________________________________________________________________
dense_414 (Dense)            (None, 3)                 903       
=================================================================
Total params: 93,303
Trainable params: 93,303
Non-trainable params: 0
_________________________________________________________________
(tt=7) final loss (avg sq l2): 1.1221
_________________________________________________________________
Layer (type)                 Output Shape              Param #   
=================================================================
dense_415 (Dense)            (None, 300)               2100      
_________________________________________________________________
dense_416 (Dense)            (None, 300)               90300     
_________________________________________________________________
dense_417 (Dense)            (None, 3)                 903       
=================================================================
Total params: 93,303
Trainable params: 93,303
Non-trainable params: 0
_________________________________________________________________
(tt=8) final loss (avg sq l2): 1.4857
_________________________________________________________________
Layer (type)                 Output Shape              Param #   
=================================================================
dense_418 (Dense)            (None, 300)               2100      
_________________________________________________________________
dense_419 (Dense)            (None, 300)               90300     
_________________________________________________________________
dense_420 (Dense)            (None, 3)                 903       
=================================================================
Total params: 93,303
Trainable params: 93,303
Non-trainable params: 0
_________________________________________________________________
(tt=9) final loss (avg sq l2): 0.9256
mean over folds: 1.7785


NOW DOING: DNN

num_hidden: 3, num_units: 300, nonlin: sigmoid
_________________________________________________________________
Layer (type)                 Output Shape              Param #   
=================================================================
dense_421 (Dense)            (None, 300)               2100      
_________________________________________________________________
dense_422 (Dense)            (None, 300)               90300     
_________________________________________________________________
dense_423 (Dense)            (None, 300)               90300     
_________________________________________________________________
dense_424 (Dense)            (None, 3)                 903       
=================================================================
Total params: 183,603
Trainable params: 183,603
Non-trainable params: 0
_________________________________________________________________
(tt=0) final loss (avg sq l2): 1.8410
_________________________________________________________________
Layer (type)                 Output Shape              Param #   
=================================================================
dense_425 (Dense)            (None, 300)               2100      
_________________________________________________________________
dense_426 (Dense)            (None, 300)               90300     
_________________________________________________________________
dense_427 (Dense)            (None, 300)               90300     
_________________________________________________________________
dense_428 (Dense)            (None, 3)                 903       
=================================================================
Total params: 183,603
Trainable params: 183,603
Non-trainable params: 0
_________________________________________________________________
(tt=1) final loss (avg sq l2): 1.6285
_________________________________________________________________
Layer (type)                 Output Shape              Param #   
=================================================================
dense_429 (Dense)            (None, 300)               2100      
_________________________________________________________________
dense_430 (Dense)            (None, 300)               90300     
_________________________________________________________________
dense_431 (Dense)            (None, 300)               90300     
_________________________________________________________________
dense_432 (Dense)            (None, 3)                 903       
=================================================================
Total params: 183,603
Trainable params: 183,603
Non-trainable params: 0
_________________________________________________________________
(tt=2) final loss (avg sq l2): 2.5715
_________________________________________________________________
Layer (type)                 Output Shape              Param #   
=================================================================
dense_433 (Dense)            (None, 300)               2100      
_________________________________________________________________
dense_434 (Dense)            (None, 300)               90300     
_________________________________________________________________
dense_435 (Dense)            (None, 300)               90300     
_________________________________________________________________
dense_436 (Dense)            (None, 3)                 903       
=================================================================
Total params: 183,603
Trainable params: 183,603
Non-trainable params: 0
_________________________________________________________________
(tt=3) final loss (avg sq l2): 1.9706
_________________________________________________________________
Layer (type)                 Output Shape              Param #   
=================================================================
dense_437 (Dense)            (None, 300)               2100      
_________________________________________________________________
dense_438 (Dense)            (None, 300)               90300     
_________________________________________________________________
dense_439 (Dense)            (None, 300)               90300     
_________________________________________________________________
dense_440 (Dense)            (None, 3)                 903       
=================================================================
Total params: 183,603
Trainable params: 183,603
Non-trainable params: 0
_________________________________________________________________
(tt=4) final loss (avg sq l2): 2.8290
_________________________________________________________________
Layer (type)                 Output Shape              Param #   
=================================================================
dense_441 (Dense)            (None, 300)               2100      
_________________________________________________________________
dense_442 (Dense)            (None, 300)               90300     
_________________________________________________________________
dense_443 (Dense)            (None, 300)               90300     
_________________________________________________________________
dense_444 (Dense)            (None, 3)                 903       
=================================================================
Total params: 183,603
Trainable params: 183,603
Non-trainable params: 0
_________________________________________________________________
(tt=5) final loss (avg sq l2): 1.8920
_________________________________________________________________
Layer (type)                 Output Shape              Param #   
=================================================================
dense_445 (Dense)            (None, 300)               2100      
_________________________________________________________________
dense_446 (Dense)            (None, 300)               90300     
_________________________________________________________________
dense_447 (Dense)            (None, 300)               90300     
_________________________________________________________________
dense_448 (Dense)            (None, 3)                 903       
=================================================================
Total params: 183,603
Trainable params: 183,603
Non-trainable params: 0
_________________________________________________________________
(tt=6) final loss (avg sq l2): 2.7914
_________________________________________________________________
Layer (type)                 Output Shape              Param #   
=================================================================
dense_449 (Dense)            (None, 300)               2100      
_________________________________________________________________
dense_450 (Dense)            (None, 300)               90300     
_________________________________________________________________
dense_451 (Dense)            (None, 300)               90300     
_________________________________________________________________
dense_452 (Dense)            (None, 3)                 903       
=================================================================
Total params: 183,603
Trainable params: 183,603
Non-trainable params: 0
_________________________________________________________________
(tt=7) final loss (avg sq l2): 1.8824
_________________________________________________________________
Layer (type)                 Output Shape              Param #   
=================================================================
dense_453 (Dense)            (None, 300)               2100      
_________________________________________________________________
dense_454 (Dense)            (None, 300)               90300     
_________________________________________________________________
dense_455 (Dense)            (None, 300)               90300     
_________________________________________________________________
dense_456 (Dense)            (None, 3)                 903       
=================================================================
Total params: 183,603
Trainable params: 183,603
Non-trainable params: 0
_________________________________________________________________
(tt=8) final loss (avg sq l2): 2.1077
_________________________________________________________________
Layer (type)                 Output Shape              Param #   
=================================================================
dense_457 (Dense)            (None, 300)               2100      
_________________________________________________________________
dense_458 (Dense)            (None, 300)               90300     
_________________________________________________________________
dense_459 (Dense)            (None, 300)               90300     
_________________________________________________________________
dense_460 (Dense)            (None, 3)                 903       
=================================================================
Total params: 183,603
Trainable params: 183,603
Non-trainable params: 0
_________________________________________________________________
(tt=9) final loss (avg sq l2): 1.9812
mean over folds: 2.1495


NOW DOING: DNN

num_hidden: 3, num_units: 300, nonlin: tanh
_________________________________________________________________
Layer (type)                 Output Shape              Param #   
=================================================================
dense_461 (Dense)            (None, 300)               2100      
_________________________________________________________________
dense_462 (Dense)            (None, 300)               90300     
_________________________________________________________________
dense_463 (Dense)            (None, 300)               90300     
_________________________________________________________________
dense_464 (Dense)            (None, 3)                 903       
=================================================================
Total params: 183,603
Trainable params: 183,603
Non-trainable params: 0
_________________________________________________________________
(tt=0) final loss (avg sq l2): 1.9846
_________________________________________________________________
Layer (type)                 Output Shape              Param #   
=================================================================
dense_465 (Dense)            (None, 300)               2100      
_________________________________________________________________
dense_466 (Dense)            (None, 300)               90300     
_________________________________________________________________
dense_467 (Dense)            (None, 300)               90300     
_________________________________________________________________
dense_468 (Dense)            (None, 3)                 903       
=================================================================
Total params: 183,603
Trainable params: 183,603
Non-trainable params: 0
_________________________________________________________________
(tt=1) final loss (avg sq l2): 1.9872
_________________________________________________________________
Layer (type)                 Output Shape              Param #   
=================================================================
dense_469 (Dense)            (None, 300)               2100      
_________________________________________________________________
dense_470 (Dense)            (None, 300)               90300     
_________________________________________________________________
dense_471 (Dense)            (None, 300)               90300     
_________________________________________________________________
dense_472 (Dense)            (None, 3)                 903       
=================================================================
Total params: 183,603
Trainable params: 183,603
Non-trainable params: 0
_________________________________________________________________
(tt=2) final loss (avg sq l2): 2.4838
_________________________________________________________________
Layer (type)                 Output Shape              Param #   
=================================================================
dense_473 (Dense)            (None, 300)               2100      
_________________________________________________________________
dense_474 (Dense)            (None, 300)               90300     
_________________________________________________________________
dense_475 (Dense)            (None, 300)               90300     
_________________________________________________________________
dense_476 (Dense)            (None, 3)                 903       
=================================================================
Total params: 183,603
Trainable params: 183,603
Non-trainable params: 0
_________________________________________________________________
(tt=3) final loss (avg sq l2): 1.9188
_________________________________________________________________
Layer (type)                 Output Shape              Param #   
=================================================================
dense_477 (Dense)            (None, 300)               2100      
_________________________________________________________________
dense_478 (Dense)            (None, 300)               90300     
_________________________________________________________________
dense_479 (Dense)            (None, 300)               90300     
_________________________________________________________________
dense_480 (Dense)            (None, 3)                 903       
=================================================================
Total params: 183,603
Trainable params: 183,603
Non-trainable params: 0
_________________________________________________________________
(tt=4) final loss (avg sq l2): 2.5617
_________________________________________________________________
Layer (type)                 Output Shape              Param #   
=================================================================
dense_481 (Dense)            (None, 300)               2100      
_________________________________________________________________
dense_482 (Dense)            (None, 300)               90300     
_________________________________________________________________
dense_483 (Dense)            (None, 300)               90300     
_________________________________________________________________
dense_484 (Dense)            (None, 3)                 903       
=================================================================
Total params: 183,603
Trainable params: 183,603
Non-trainable params: 0
_________________________________________________________________
(tt=5) final loss (avg sq l2): 2.2910
_________________________________________________________________
Layer (type)                 Output Shape              Param #   
=================================================================
dense_485 (Dense)            (None, 300)               2100      
_________________________________________________________________
dense_486 (Dense)            (None, 300)               90300     
_________________________________________________________________
dense_487 (Dense)            (None, 300)               90300     
_________________________________________________________________
dense_488 (Dense)            (None, 3)                 903       
=================================================================
Total params: 183,603
Trainable params: 183,603
Non-trainable params: 0
_________________________________________________________________
(tt=6) final loss (avg sq l2): 2.0366
_________________________________________________________________
Layer (type)                 Output Shape              Param #   
=================================================================
dense_489 (Dense)            (None, 300)               2100      
_________________________________________________________________
dense_490 (Dense)            (None, 300)               90300     
_________________________________________________________________
dense_491 (Dense)            (None, 300)               90300     
_________________________________________________________________
dense_492 (Dense)            (None, 3)                 903       
=================================================================
Total params: 183,603
Trainable params: 183,603
Non-trainable params: 0
_________________________________________________________________
(tt=7) final loss (avg sq l2): 2.5339
_________________________________________________________________
Layer (type)                 Output Shape              Param #   
=================================================================
dense_493 (Dense)            (None, 300)               2100      
_________________________________________________________________
dense_494 (Dense)            (None, 300)               90300     
_________________________________________________________________
dense_495 (Dense)            (None, 300)               90300     
_________________________________________________________________
dense_496 (Dense)            (None, 3)                 903       
=================================================================
Total params: 183,603
Trainable params: 183,603
Non-trainable params: 0
_________________________________________________________________
(tt=8) final loss (avg sq l2): 1.9010
_________________________________________________________________
Layer (type)                 Output Shape              Param #   
=================================================================
dense_497 (Dense)            (None, 300)               2100      
_________________________________________________________________
dense_498 (Dense)            (None, 300)               90300     
_________________________________________________________________
dense_499 (Dense)            (None, 300)               90300     
_________________________________________________________________
dense_500 (Dense)            (None, 3)                 903       
=================================================================
Total params: 183,603
Trainable params: 183,603
Non-trainable params: 0
_________________________________________________________________
(tt=9) final loss (avg sq l2): 2.0217
mean over folds: 2.1720


NOW DOING: DNN

num_hidden: 3, num_units: 300, nonlin: relu
_________________________________________________________________
Layer (type)                 Output Shape              Param #   
=================================================================
dense_501 (Dense)            (None, 300)               2100      
_________________________________________________________________
dense_502 (Dense)            (None, 300)               90300     
_________________________________________________________________
dense_503 (Dense)            (None, 300)               90300     
_________________________________________________________________
dense_504 (Dense)            (None, 3)                 903       
=================================================================
Total params: 183,603
Trainable params: 183,603
Non-trainable params: 0
_________________________________________________________________
(tt=0) final loss (avg sq l2): 1.7163
_________________________________________________________________
Layer (type)                 Output Shape              Param #   
=================================================================
dense_505 (Dense)            (None, 300)               2100      
_________________________________________________________________
dense_506 (Dense)            (None, 300)               90300     
_________________________________________________________________
dense_507 (Dense)            (None, 300)               90300     
_________________________________________________________________
dense_508 (Dense)            (None, 3)                 903       
=================================================================
Total params: 183,603
Trainable params: 183,603
Non-trainable params: 0
_________________________________________________________________
(tt=1) final loss (avg sq l2): 1.4109
_________________________________________________________________
Layer (type)                 Output Shape              Param #   
=================================================================
dense_509 (Dense)            (None, 300)               2100      
_________________________________________________________________
dense_510 (Dense)            (None, 300)               90300     
_________________________________________________________________
dense_511 (Dense)            (None, 300)               90300     
_________________________________________________________________
dense_512 (Dense)            (None, 3)                 903       
=================================================================
Total params: 183,603
Trainable params: 183,603
Non-trainable params: 0
_________________________________________________________________
(tt=2) final loss (avg sq l2): 3.2491
_________________________________________________________________
Layer (type)                 Output Shape              Param #   
=================================================================
dense_513 (Dense)            (None, 300)               2100      
_________________________________________________________________
dense_514 (Dense)            (None, 300)               90300     
_________________________________________________________________
dense_515 (Dense)            (None, 300)               90300     
_________________________________________________________________
dense_516 (Dense)            (None, 3)                 903       
=================================================================
Total params: 183,603
Trainable params: 183,603
Non-trainable params: 0
_________________________________________________________________
(tt=3) final loss (avg sq l2): 1.3258
_________________________________________________________________
Layer (type)                 Output Shape              Param #   
=================================================================
dense_517 (Dense)            (None, 300)               2100      
_________________________________________________________________
dense_518 (Dense)            (None, 300)               90300     
_________________________________________________________________
dense_519 (Dense)            (None, 300)               90300     
_________________________________________________________________
dense_520 (Dense)            (None, 3)                 903       
=================================================================
Total params: 183,603
Trainable params: 183,603
Non-trainable params: 0
_________________________________________________________________
(tt=4) final loss (avg sq l2): 1.9041
_________________________________________________________________
Layer (type)                 Output Shape              Param #   
=================================================================
dense_521 (Dense)            (None, 300)               2100      
_________________________________________________________________
dense_522 (Dense)            (None, 300)               90300     
_________________________________________________________________
dense_523 (Dense)            (None, 300)               90300     
_________________________________________________________________
dense_524 (Dense)            (None, 3)                 903       
=================================================================
Total params: 183,603
Trainable params: 183,603
Non-trainable params: 0
_________________________________________________________________
(tt=5) final loss (avg sq l2): 1.8413
_________________________________________________________________
Layer (type)                 Output Shape              Param #   
=================================================================
dense_525 (Dense)            (None, 300)               2100      
_________________________________________________________________
dense_526 (Dense)            (None, 300)               90300     
_________________________________________________________________
dense_527 (Dense)            (None, 300)               90300     
_________________________________________________________________
dense_528 (Dense)            (None, 3)                 903       
=================================================================
Total params: 183,603
Trainable params: 183,603
Non-trainable params: 0
_________________________________________________________________
(tt=6) final loss (avg sq l2): 1.6337
_________________________________________________________________
Layer (type)                 Output Shape              Param #   
=================================================================
dense_529 (Dense)            (None, 300)               2100      
_________________________________________________________________
dense_530 (Dense)            (None, 300)               90300     
_________________________________________________________________
dense_531 (Dense)            (None, 300)               90300     
_________________________________________________________________
dense_532 (Dense)            (None, 3)                 903       
=================================================================
Total params: 183,603
Trainable params: 183,603
Non-trainable params: 0
_________________________________________________________________
(tt=7) final loss (avg sq l2): 1.7039
_________________________________________________________________
Layer (type)                 Output Shape              Param #   
=================================================================
dense_533 (Dense)            (None, 300)               2100      
_________________________________________________________________
dense_534 (Dense)            (None, 300)               90300     
_________________________________________________________________
dense_535 (Dense)            (None, 300)               90300     
_________________________________________________________________
dense_536 (Dense)            (None, 3)                 903       
=================================================================
Total params: 183,603
Trainable params: 183,603
Non-trainable params: 0
_________________________________________________________________
(tt=8) final loss (avg sq l2): 1.4821
_________________________________________________________________
Layer (type)                 Output Shape              Param #   
=================================================================
dense_537 (Dense)            (None, 300)               2100      
_________________________________________________________________
dense_538 (Dense)            (None, 300)               90300     
_________________________________________________________________
dense_539 (Dense)            (None, 300)               90300     
_________________________________________________________________
dense_540 (Dense)            (None, 3)                 903       
=================================================================
Total params: 183,603
Trainable params: 183,603
Non-trainable params: 0
_________________________________________________________________
(tt=9) final loss (avg sq l2): 1.1490
mean over folds: 1.7416
